Model: "sequential"
_________________________________________________________________
Layer (type)                 Output Shape              Param #
=================================================================
conv2d (Conv2D)              (None, 26, 26, 32)        320
max_pooling2d (MaxPooling2D) (None, 13, 13, 32)        0
conv2d_1 (Conv2D)            (None, 11, 11, 64)        18496
max_pooling2d_1 (MaxPooling2D) (None, 5, 5, 64)       0
flatten (Flatten)            (None, 1600)              0
dense (Dense)                (None, 128)               204928
dropout (Dropout)            (None, 128)               0
dense_1 (Dense)              (None, 10)                1290
=================================================================
Total params: 224,034
Trainable params: 224,034


Epoch 1/10
938/938 [==============================] - 10s 10ms/step - loss: 0.2105 - accuracy: 0.9360 - val_loss: 0.0568 - val_accuracy: 0.9835
Epoch 2/10
938/938 [==============================] - 8s 9ms/step - loss: 0.0728 - accuracy: 0.9782 - val_loss: 0.0431 - val_accuracy: 0.9870
…
